…
        "device = \"cuda\" if torch.cuda.is_available() else \"cpu\"\n",
        "\n",
        "model = ResNet(num_classes=10)\n",
        "model.to(device)"
      ],
      "metadata": {
        "colab": {
          "base_uri": "https://localhost:8080/"
        },
        "id": "P4R_XBnL3shL",
        "outputId": "52837454-8421-4213-e96a-05d849b701c0"
      },
      "execution_count": 11,
      "outputs": [
        {
          "output_type": "execute_result",
          "data": {
            "text/plain": [
              "ResNet(\n",
              "  (b1): BasicBlock(\n",
              "    (c1): Conv2d(3, 64, kernel_size=(3, 3), stride=(1, 1), padding=(1, 1))\n",
              "    (c2): Conv2d(64, 64, kernel_size=(3, 3), stride=(1, 1), padding=(1, 1))\n",
              "    (downsample): Conv2d(3, 64, kernel_size=(1, 1), stride=(1, 1))\n",
              "    (bn1): BatchNorm2d(64, eps=1e-05, momentum=0.1, affine=True, track_running_stats=True)\n",
              "    (bn2): BatchNorm2d(64, eps=1e-05, momentum=0.1, affine=True, track_running_stats=True)\n",
              "    (relu): ReLU()\n",
              "  )\n",
              "  (b2): BasicBlock(\n",
              "    (c1): Conv2d(64, 128, kernel_size=(3, 3), stride=(1, 1), padding=(1, 1))\n",
              "    (c2): Conv2d(128, 128, kernel_size=(3, 3), stride=(1, 1), padding=(1, 1))\n",
              "    (downsample): Conv2d(64, 128, kernel_size=(1, 1), stride=(1, 1))\n",
              "    (bn1): BatchNorm2d(128, eps=1e-05, momentum=0.1, affine=True, track_running_stats=True)\n",
              "    (bn2): BatchNorm2d(128, eps=1e-05, momentum=0.1, affine=True, track_running_stats=True)\n",
              "    (relu): ReLU()\n",
              "  )\n",
              "  (b3): BasicBlock(\n",
              "    (c1): Conv2d(128, 256, kernel_size=(3, 3), stride=(1, 1), padding=(1, 1))\n",
              "    (c2): Conv2d(256, 256, kernel_size=(3, 3), stride=(1, 1), padding=(1, 1))\n",
              "    (downsample): Conv2d(128, 256, kernel_size=(1, 1), stride=(1, 1))\n",
              "    (bn1): BatchNorm2d(256, eps=1e-05, momentum=0.1, affine=True, track_running_stats=True)\n",
              "    (bn2): BatchNorm2d(256, eps=1e-05, momentum=0.1, affine=True, track_running_stats=True)\n",
              "    (relu): ReLU()\n",
              "  )\n",
              "  (pool): AvgPool2d(kernel_size=2, stride=2, padding=0)\n",
              "  (fc1): Linear(in_features=4096, out_features=2048, bias=True)\n",
              "  (fc2): Linear(in_features=2048, out_features=512, bias=True)\n",
              "  (fc3): Linear(in_features=512, out_features=10, bias=True)\n",
              "  (relu): ReLU()\n",
              ")"
            ]
          },
          "metadata": {},
          "execution_count": 11
        }
      ]
    },
    {
      "cell_type": "code",
      "source": [
        "#  \n",
        "lr = 1e-4\n",
        "optim = Adam(model.parameters(), lr=lr)\n",
        "\n",
        "for epoch in range(30):\n",
…
